PyTorch_study/models/03_pytorch_computer_vision_model_2.pth (torch, 35762 bytes, 10 tensors)

conv_block_1.0.weight f4 [10, 1, 3, 3]
0	0x3e822177	0.25416157
1	0x3eb20af3	0.3477398
2	0xbecf1a8e	-0.40449947
3	0x3de52a6f	0.11189734
4	0x3e3bf81b	0.18356363
5	0x3d285f0f	0.04110628
6	0xbedb4d5d	-0.4283246
7	0x3e47448c	0.19459742
8	0x3eb86aa1	0.3601885
9	0xbece7d13	-0.403298
10	0x3f16cb2d	0.5890377
11	0xbe70f952	-0.23532608
12	0x3e5da67f	0.21645544
13	0x3ee8df47	0.45482847
14	0x3def1805	0.11674503
15	0xbd96d9b5	-0.07365743
16	0x3e6da2db	0.23206656
17	0x3dbc5360	0.0919559
18	0xbeba9281	-0.364399
19	0xbde6e123	-0.1127341
20	0xbdb133ea	-0.0865248
21	0xbf059b8f	-0.5219049
22	0xbf19ad9f	-0.6003055
23	0x3decbb2a	0.11559136
24	0xbf29919f	-0.66237825
25	0xbf1c0dea	-0.6095873
26	0xbe38296c	-0.17984551
27	0xbf42c469	-0.7608095
28	0xbf8e60f4	-1.1123338
29	0xbf0987e4	-0.5372298
30	0x3ec22457	0.3791835
31	0xbf2a02c9	-0.664105
32	0x3e92a8c1	0.28644374
33	0x3e81219a	0.25220948
34	0xbd883117	-0.06649988
35	0x3edfe866	0.43731993
36	0x3d66a0ea	0.056305803
37	0x3eb63fb9	0.35595492
38	0xbdb94399	-0.09046096
39	0xbd63c877	-0.0556111
40	0x3e8c164b	0.27360758
41	0xbdb943b7	-0.09046119
42	0xbd180d29	-0.037121926
43	0x3e8550d1	0.2603822
44	0x3e402f25	0.18767984
45	0xbe1388ee	-0.14407703
46	0x3e4442d3	0.19166116
47	0x3d74bfe9	0.059753332
48	0x3e33d34d	0.17561074
49	0xbe4ef8ab	-0.20212047
50	0xbea8bab6	-0.3295495
51	0xbe01d7a8	-0.12679923
52	0xbe83dfe5	-0.25756755
53	0x3e81c1df	0.25343224
54	0x3d9d2935	0.07673875
55	0x3e13e4e0	0.14442778
56	0x3d07073c	0.032965884
57	0x3b6cb3ca	0.0036117905
58	0x3e59abc6	0.21256933
59	0xbe774795	-0.241484
60	0x3d30349f	0.043018933
61	0xbecbbfdf	-0.39794824
62	0x3d21de14	0.03951843
63	0xbdf99b44	-0.12187818
64	0x3dd7a8a4	0.105302125
65	0xbe333580	-0.17500877
66	0x3ece51a5	0.40296665
67	0xbe5d1d3d	-0.21593185
68	0xbe9713e3	-0.2950736
69	0xbe32d0c2	-0.17462447
70	0x3ebdcd5c	0.3707074
71	0x3e1d657e	0.15370747
72	0x3f03dce1	0.5150891
73	0xbeb042b4	-0.3442589
74	0xbeee2547	-0.46512815
75	0xbe0d07c1	-0.13772489
76	0xbea84e1f	-0.32872102
77	0xbc4542f3	-0.012039888
78	0x3ec2f782	0.38079458
79	0x3f00f11b	0.503679
80	0xbe5903c5	-0.21192844
81	0xbe683ce0	-0.22679472
82	0x3e3483d7	0.17628418
83	0xbe09bfc9	-0.13452066
84	0x3e4f2be7	0.20231591
85	0xbda3af3a	-0.07992406
86	0x3e42deeb	0.19030349
87	0xbe84def4	-0.2595135
88	0xbe2c5c5e	-0.1683211
89	0x3dcf7dbe	0.10131405

conv_block_1.0.bias f4 [10]
0	0x3d93d7e7	0.072189145
1	0x3d8de5a9	0.0692857
2	0x3e856123	0.26050672
3	0x3e48b0d5	0.19598706
4	0xbed74d2a	-0.4205106
5	0xbe4fbfb9	-0.2028798
6	0x3e2a0211	0.16602351
7	0xbd6daa2c	-0.058023617
8	0xbdf16020	-0.117859125
9	0xbea541e5	-0.32276836

conv_block_1.2.weight f4 [10, 10, 3, 3]
0	0xbd6c1ebd	-0.0576465
1	0xbcb7c6b2	-0.022433612
2	0xbb1756ef	-0.0023092588
3	0xbe38e18d	-0.18054791
4	0xbe527033	-0.20550613
5	0xbe10f617	-0.14156376
6	0xbd2c2d0f	-0.04203516
7	0xbe6b131f	-0.22956513
8	0xbe1d9c1c	-0.15391582
9	0xbdd1df96	-0.10247724
10	0xbd007cc4	-0.031368986
11	0xbcd3c004	-0.025848396
12	0xbe286d11	-0.16447856
13	0xbe9e6973	-0.30939826
14	0xbe29571d	-0.16537137
15	0xbd91b9e0	-0.07115531
16	0xbe458a7d	-0.1929111
17	0xbdf43cf6	-0.1192569
18	0x3c9a8783	0.018863445
19	0x3d5a5f6f	0.05331367
20	0x3e01f687	0.12691699
21	0x3d71abf9	0.059001897
22	0x3e8635b8	0.2621286
23	0x3e45fb36	0.1933411
24	0xbe0ce35a	-0.13758603
25	0xba2145ce	-0.00061520643
26	0x3d8b1042	0.0679021
27	0xbe0771ba	-0.13226977
28	0xbd544333	-0.0518219
29	0xbe6e4327	-0.23267804
30	0x3d525f0d	0.05136018
31	0xbbc76327	-0.006084818
32	0xbdd3e120	-0.103456736
33	0x3e14beea	0.14525953
34	0x3dbb4b17	0.091451816
35	0x3dda8020	0.10668969
36	0xbdead815	-0.114669956
37	0xbe036782	-0.12832454
38	0x3c84e94b	0.016224524
39	0xbd2bcc6c	-0.041943
40	0x3cf15d89	0.029463546
41	0xbdb9b8f3	-0.090684794
42	0x3dd799cb	0.105273806
43	0xbda5e45b	-0.08100196
44	0xbc522260	-0.012825578
45	0x3cb51f84	0.022109754
46	0x3d5f0a19	0.05445299
47	0x3daed8f1	0.08537472
48	0x3dc59ed1	0.096494325
49	0xbdaaa5d0	-0.083324075
50	0x3cde2db5	0.027121404
51	0xbd385b88	-0.045009166
52	0xbc4bad49	-0.012431451
53	0xbd9dde05	-0.077083625
54	0x3e06102b	0.13092105
55	0xbd7bffd6	-0.06152328
56	0x3c330ba4	0.010928068
57	0x3dec3644	0.11533788
58	0x3d87c0f6	0.06628601
59	0xbce99c83	-0.028517013
60	0x3d9c0998	0.07619017
61	0xbd08a47c	-0.03335999
62	0xbd8ab596	-0.06772916
63	0xbda01c03	-0.07817843
64	0x3d5242b8	0.05133316
65	0xbb992216	-0.004673253
66	0xbce58392	-0.02801684
67	0x3db8c83c	0.09022567
68	0x3c9a7c40	0.018858075
69	0xbc7118c6	-0.014715379
70	0xbd22aaa9	-0.039713535
71	0xbd18d4a8	-0.03731218
72	0x3dba2002	0.09088136
73	0xbd091541	-0.033467535
74	0xbd47c936	-0.048775874
75	0xbc5072fc	-0.012722727
76	0xbd98fce5	-0.07470111
77	0x3d3c04ef	0.045903143
78	0x3e3013f0	0.17195106
79	0xbd97ec1c	-0.07418081
80	0x3c19a637	0.009378008
81	0x3d5f0a3c	0.05445312
82	0x3c9c254a	0.01906075
83	0xbd19c8ce	-0.037545018
84	0x3d6159f5	0.05501743
85	0x3d62e4bd	0.055393923
86	0x3d218531	0.03943366
87	0xbc97bd97	-0.01852302
88	0xbce4a425	-0.027910301
89	0x3c38cf2e	0.011279864
90	0xbce41574	-0.02784226
91	0xbca7c2bb	-0.020478597
92	0x3dd64829	0.10462982
93	0x3d961a04	0.07329181
94	0xbc23ffba	-0.0100097
95	0xbaee1511	-0.0018164237
96	0xbcdd8528	-0.027041033
97	0xbd1bac5f	-0.038006183
98	0xbc593c65	-0.013259028
99	0x3cafc581	0.021456482
100	0xbd953bc4	-0.0728679
101	0x3b8d0c37	0.0043044346
102	0x3dace755	0.084425606
103	0x3d537ed6	0.051634632
104	0x3cb1089f	0.021610556
105	0xbde3ff0e	-0.11132632
106	0xbdce932b	-0.10086664
107	0xbdf99ec7	-0.121884875
108	0xbd07d0a5	-0.033157963
109	0x3d1709e3	0.036874663
110	0x3d825f26	0.063658044
111	0x3d4ab64d	0.04949026
112	0xbdc08622	-0.09400584
113	0xbd8fa6ed	-0.070142604
114	0xbcae268c	-0.021258615
115	0x3dceedf9	0.101039834
116	0x3c85a4a5	0.01631386
117	0xbca3c9cd	-0.019993687
118	0x3d263fd0	0.0405882
119	0xbd3486c2	-0.044073828
120	0xbd84f1b8	-0.06491417
121	0x3da2ad69	0.079432316
122	0xbd3e6aa7	-0.04648843
123	0xbcba103c	-0.02271282
124	0xbddea055	-0.10870425
125	0x3da57798	0.08079451
126	0x3d9f6dd9	0.07784624
127	0x3d2ad326	0.041705273
128	0xbd874360	-0.06604648
129	0xbdf6c1d0	-0.120486856
130	0xbdd44ed5	-0.103665985
131	0x3d8ab4d8	0.067727745
132	0x3d10b443	0.03532816
133	0x3da11538	0.07865375
134	0x3d2b7140	0.04185605
135	0x3cdadbc5	0.026716122
136	0xba80681b	-0.0009796651
137	0xbda430e3	-0.08017137
138	0xbdb8ca87	-0.09023004
139	0xbdc9d573	-0.09855165
140	0x3d3199bd	0.043359507
141	0xbd544be5	-0.05183019
142	0xbcae129b	-0.021249106
143	0xbd782578	-0.060582608
144	0xbcd6d240	-0.026223302
145	0xbda506f8	-0.0805797
146	0xbd97b5e8	-0.07407743
147	0x3d17358b	0.036916297
148	0xbcd5ff46	-0.0261227
149	0x3d9edc2e	0.0775684
150	0xbcfe338f	-0.031030444
151	0xbdb210dd	-0.08694623
152	0xbccbd1bd	-0.024880284
153	0xbd4c1138	-0.04982111
154	0xbd0882a6	-0.03332772
155	0xbdcbdfaf	-0.09954774
156	0x3d8194d1	0.063272126
157	0xbd958e49	-0.07302529
158	0x3d5cd2bc	0.05391191
159	0x3d45f422	0.048328526
160	0x3d9d74e6	0.07688312
161	0xbda3abc2	-0.079917446
162	0x3dacf31a	0.084448054
163	0xbd5af22d	-0.053453613
164	0x3d18cff7	0.037307706
165	0x3dd43049	0.10360772
166	0xbc874354	-0.016511597
167	0xbb0b2176	-0.002122966
168	0xbc925d28	-0.017866686
169	0xbdb18098	-0.086671054
170	0x3d4c88c7	0.04993513
171	0xbdd65090	-0.10464585
172	0x3d85fa8e	0.0654193
173	0x3da18bac	0.078879684
174	0x3dcc260e	0.09968196
175	0xbccba23b	-0.024857631
176	0xbdb1720f	-0.08664333
177	0x3cc2244a	0.023698945
178	0x3d6e83ac	0.05823104
179	0xbdd6dc15	-0.10491196
180	0xbcc3c5fd	-0.02389812
181	0xbd818d22	-0.06325747
182	0xbc250c5f	-0.01007375
183	0xbd550ad1	-0.05201227
184	0xbd316da7	-0.043317463
185	0xbd111373	-0.03541894
186	0xbdd3d224	-0.103428155
187	0x3da9739e	0.08274005
188	0x3da88e34	0.08230248
189	0xbc87673a	-0.016528714
190	0xbc48597d	-0.012228367
191	0xbd2fd497	-0.04292735
192	0xbdc63f66	-0.09680061
193	0xbdd300a1	-0.10302854
194	0x3d15cfa5	0.03657498
195	0xbd823234	-0.06357232
196	0xbd93925d	-0.07205651
197	0xbc74882e	-0.014925046
198	0xbd1cdf4c	-0.03829889
199	0xbd1ad32e	-0.037799053
200	0x394289f1	0.00018552669
201	0xbcbd762b	-0.023127636
202	0xbd19628c	-0.037447497
203	0xbd52c3e4	-0.051456347
204	0xbdb14485	-0.08655647
205	0x3db2fe44	0.087399036
206	0xbd2cb66b	-0.042166155
207	0x3cd30e72	0.025763724
208	0xbd1f15b5	-0.03883906
209	0x3ba485b4	0.0050208215
210	0x3dc07038	0.09396404
211	0x3d35f686	0.044424556
212	0xbdc6b688	-0.09702784
213	0x3d0f632b	0.035006683
214	0x3db94b23	0.09047534
215	0x3ca75b73	0.020429349
216	0x3d90b8bd	0.07066486
217	0x3dd4d3f3	0.103919886
218	0xbc83c79d	-0.016086394
219	0x3cb2f28c	0.021844171
220	0xbd9659ec	-0.0734137
221	0xbcb5abf7	-0.022176726
222	0x3d9cb08c	0.07650861
223	0x3d59c0f8	0.053162545
224	0xbd8b5c56	-0.06804721
225	0xbdad1c06	-0.08452611
226	0xbd9385fd	-0.072032906
227	0xbdd514a2	-0.10404326
228	0xbda6947b	-0.08133789
229	0xbcd63422	-0.026147906
230	0x3d91d11c	0.071199626
231	0x3c90ac8b	0.0176604
232	0xbda42e21	-0.08016611
233	0xbdad2ec0	-0.084561825
234	0x3d46cf8d	0.04853778
235	0xbda88b31	-0.08229674
236	0xbc8c8515	-0.017153302
237	0x3d45f6e9	0.048331175
238	0xbd54188b	-0.05178122
239	0xbc53e00f	-0.012931838
240	0xbc3b6a36	-0.011438897
241	0xbcdb03af	-0.026735155
242	0xbd5e5dda	-0.054288723
243	0xbdc065f2	-0.093944445
244	0xbdae8184	-0.08520797
245	0xbd6742de	-0.056460254
246	0x3dce2a1f	0.10066628
247	0xbd50a3eb	-0.050937574
248	0xbd91aac9	-0.07112653
249	0x3ccc1207	0.02491094
250	0x3cdf10ae	0.027229633
251	0x3d679808	0.056541473
252	0x3da2d40c	0.07950601
253	0x3d70bafa	0.058772065
254	0xbdd626fc	-0.104566544
255	0x3c01bb49	0.007918187

conv_block_1.2.bias f4 [10]
0	0x3ee597b7	0.44842312
1	0xbd0ac898	-0.033882707
2	0xbd8a0272	-0.06738748
3	0x3eaae173	0.3337513
4	0xbe1bbf52	-0.15209702
5	0x3cd7ba90	0.026334077
6	0x3e8b4e73	0.2720829
7	0xbd987346	-0.07443862
8	0x3e9eb30f	0.30995986
9	0xbc5c8128	-0.013458528

conv_block_2.0.weight f4 [10, 10, 3, 3]
0	0x3dc219a5	0.094775476
1	0x3c35a310	0.01108624
2	0x3c25a09d	0.010109094
3	0xbc040ef5	-0.008060207
4	0xbd61e2bc	-0.05514787
5	0xbd197a92	-0.037470408
6	0xbd9d351f	-0.07676148
7	0xbd784538	-0.060612887
8	0xbc0bc83c	-0.008531626
9	0x3d6a0fe4	0.05714406
10	0xbdca5678	-0.09879774
11	0xbd3412b1	-0.043963138
12	0xbdb6abd6	-0.08919494
13	0xbd8d6c77	-0.06905454
14	0x3d56542d	0.05232637
15	0xbc4dff61	-0.012573094
16	0x3d4c1ff8	0.049835175
17	0xbd5341bd	-0.051576365
18	0x3c7e5e95	0.01552548
19	0xbd82fe2b	-0.06396135
20	0x3d514371	0.051089708
21	0xbd3e1438	-0.046406
22	0xbcd7987c	-0.026317827
23	0xbdb990e7	-0.09060841
24	0x3a348633	0.00068864523
25	0x3dcd5b94	0.10027233
26	0x3d5240d9	0.051331375
27	0xbe2b1d5e	-0.16710421
28	0x3dca2c20	0.098716974
29	0xbe452e22	-0.1925588
30	0xbdb0f74b	-0.086409174
31	0x3ead395d	0.33832827
32	0x3e2e31e7	0.17011224
33	0x3d6c1dd1	0.057645623
34	0xbb678176	-0.0035324967
35	0xbc932f95	-0.017967025
36	0x3cce3e20	0.025176108
37	0x3d7f5c64	0.06234397
38	0x3c8cd634	0.017191984
39	0xbcc5395e	-0.024075206
40	0x3d875c67	0.06609421
41	0xbc8f84a1	-0.017519297
42	0xbdcd2cea	-0.10018332
43	0xbdab4190	-0.083621144
44	0x3dd44730	0.103651404
45	0x3d848ed1	0.064725526
46	0xbe1d82c5	-0.15381916
47	0xbe3f7e52	-0.18700531
48	0x3d4cff57	0.0500482
49	0xbdffd590	-0.12491906
50	0xbe0ae313	-0.13563184
51	0x3d3e6a4f	0.046488103
52	0x3d7a6883	0.061134826
53	0x3daa405a	0.08313055
54	0xbe3319a5	-0.17490251
55	0x3e6e3700	0.23263168
56	0xbe88c2c0	-0.26711082
57	0x3dee39ff	0.116321556
58	0x3e0102cb	0.12598722
59	0x3d7c63df	0.061618682
60	0x3e70a70f	0.23501228
61	0x3c056861	0.008142562
62	0xbc1159b1	-0.008871482
63	0x3dcba1bd	0.099429585
64	0x3dcc1d6c	0.09966549
65	0xbe13b4f6	-0.144245
66	0x3d5a8a3b	0.053354483
67	0x3c8e954f	0.01740518
68	0xbe68472a	-0.22683397
69	0xbc4d3c7b	-0.012526627
70	0xbe84e011	-0.259522
71	0xbe8a78a7	-0.27045175
72	0xbe4d96a0	-0.2007699
73	0xbe033a82	-0.12815288
74	0xbe6fcb13	-0.2341731
75	0x3e251dd2	0.16124657
76	0x3e67a44f	0.22621273
77	0x3e21f2a4	0.15815216
78	0xbd3c466f	-0.04596561
79	0xbe252f2a	-0.16131273
80	0x3d233576	0.039845906
81	0x3f13a10c	0.57667613
82	0xbe0410b9	-0.12897004
83	0xbbe99050	-0.007127799
84	0x3eaabc4e	0.3334679
85	0x3d8a4bc7	0.06752735
86	0xbe22858c	-0.15871257
87	0xbd86d87d	-0.065842606
88	0x3ce0f840	0.027462125
89	0xbe0e3611	-0.13887812
90	0xbdf3f608	-0.11912161
91	0xbe87b996	-0.26508778
92	0xbe1db036	-0.1539925
93	0x3e41c5dc	0.18923134
94	0xbe65b1dc	-0.22431129
95	0xbd7c9525	-0.061665673
96	0x3e0fd6d0	0.14046788
97	0x3e902914	0.2815634
98	0x3da9fa57	0.08299702
99	0x3d13fad0	0.036127865
100	0xbd2738ec	-0.04082577
101	0xbdd79e92	-0.10528292
102	0xbd89ea44	-0.06734136
103	0x3de712ac	0.11282858
104	0x3c21e5f6	0.009881487
105	0x3d242139	0.040070746
106	0xbd3464bb	-0.044041377
107	0x3dae13b5	0.084998526
108	0x3d78c88d	0.060738135
109	0x3d1946d0	0.037421048
110	0xbd5bcc4f	-0.05366164
111	0xbdaf8dbe	-0.08571957
112	0x3b9ea2c6	0.0048411814
113	0xbd7b65b6	-0.061376296
114	0x3db0f2df	0.08640074
115	0xbdcf4701	-0.10120965
116	0x3d42355c	0.04741417
117	0x3d8da6c6	0.06916575
118	0x3ee05281	0.43812945
119	0x3e82fda8	0.2558415
120	0xbe40d563	-0.188314
121	0x3f267bf2	0.65032876
122	0x3ebb21a8	0.36549115
123	0xbf1d3ea4	-0.61423707
124	0xbea71f75	-0.32641187
125	0xbe74a2e8	-0.23890269
126	0x3e0afcc3	0.13572983
127	0x3e5fd405	0.21858223
128	0x3d080737	0.033210006
129	0xbd55249e	-0.052036874
130	0x3bcb4143	0.006202848
131	0x3d17132f	0.03688353
132	0xbd9614ac	-0.073281616
133	0xbe228b39	-0.15873422
134	0x3ca9f1e3	0.020745223
135	0x3d40b842	0.047050722
136	0xbe9aa5ee	-0.3020472
137	0xbe00110f	-0.12506507
138	0x3e4d0b1a	0.20023766
139	0x3e27e5c2	0.1639624
140	0x3b4e20af	0.0031452586
141	0x3deb9e37	0.115047865
142	0x3e39da4a	0.18149677
143	0x3e7edeed	0.24889727
144	0xbf34abca	-0.7057463
145	0x3e845b9c	0.25851142
146	0x3eb56e3e	0.3543567
147	0xbe9b5e2d	-0.30345288
148	0x3ea32946	0.31867427
149	0x3f240c66	0.6408142
150	0xbe886ae4	-0.2664405
151	0xbdb78288	-0.08960444
152	0xbe60dd5d	-0.21959443
153	0xbe81e4d5	-0.25369897
154	0xbe8cf691	-0.27531865
155	0xbcb3161b	-0.021861127
156	0xbee771f2	-0.4520412
157	0xbe3a5fd8	-0.18200624
158	0x3d3f7484	0.046741977
159	0xbe66d0cd	-0.22540589
160	0xbdf0d74b	-0.11759814
161	0xbd90b080	-0.07064915
162	0xbeb736d3	-0.35784015
163	0x3e301fde	0.17199656
164	0x3ebc66f5	0.367973
165	0xbd768432	-0.060184665
166	0x3ea43a58	0.32075763
167	0x3e9bebfd	0.30453482
168	0xbe44edab	-0.19231288
169	0xbdd75637	-0.10514491
170	0xbdece06e	-0.11566244
171	0x3eab66c1	0.33476833
172	0xbe1ce326	-0.15321025
173	0xbe8b7926	-0.27240866
174	0x3e00a2a9	0.1256205
175	0x3d4fc6cc	0.050726697
176	0xbdd2d80d	-0.10295115
177	0xbe80ad0f	-0.25132033
178	0x3cb740c9	0.02236976
179	0x3e15d084	0.14630324
180	0xbd779ba5	-0.06045117
181	0x3db492b8	0.08817047
182	0x3d8c975c	0.06864807
183	0xbdd3a8da	-0.1033494
184	0xbdd73a7d	-0.10509203
185	0xbdf72019	-0.12066669
186	0xbd9567f5	-0.07295219
187	0xbd6f32f3	-0.0583982
188	0xbd0fec99	-0.035137746
189	0xbccb8379	-0.024842964
190	0xbd5978c0	-0.05309367
191	0xbd09a84e	-0.033607773
192	0xbd18625e	-0.037203185
193	0x3dd6d682	0.10490133
194	0xbd1d23e4	-0.038364306
195	0xbd9b4591	-0.07581628
196	0x3d3409c8	0.04395464
197	0xbb23cb48	-0.0024992991
198	0x3da56875	0.08076564
199	0x3d8714ab	0.06595739
200	0x3dc6ae8f	0.09701263
201	0xbd9e2a53	-0.077229165
202	0x3d8b01a4	0.06787422
203	0x3db54eef	0.08852946
204	0xbd55430e	-0.0520659
205	0x3dc66963	0.0968807
206	0x3da1e192	0.07904352
207	0xbcf66002	-0.030075077
208	0xbab588f3	-0.0013850018
209	0xbdb112aa	-0.08646138
210	0xbdfeb954	-0.12437692
211	0x3cefc509	0.029268758
212	0x3d2c9e9c	0.04214345
213	0xbdec8d9f	-0.115504496
214	0x3d31a44a	0.04336957
215	0xbdb5fdb8	-0.08886284
216	0x3da4bad1	0.08043445
217	0x3db2cb84	0.08730224
218	0x3caea122	0.021317068
219	0xbd8dbbb4	-0.06920567
220	0x3d7457b7	0.059653964
221	0x3d19842d	0.03747957
222	0x3c02016a	0.007934907
223	0x3d112628	0.03543678
224	0x3db7eaa5	0.08980302
225	0xbd4c2f6d	-0.049849916
226	0xbd7f1f7c	-0.062285885
227	0xbc54eeec	-0.012996417
228	0x3ab2e90d	0.0013649777
229	0x3d2f7b28	0.04284206
230	0xbdbdd0cd	-0.09268341
231	0xbca6027a	-0.020264853
232	0x3b1703d2	0.0023043049
233	0xbc9814bc	-0.018564574
234	0x3d3f74ff	0.046742436
235	0xbba7f665	-0.005125808
236	0xbe00d00a	-0.1257936
237	0xbd134bd6	-0.035960995
238	0xbd8f1472	-0.069863215
239	0x3c6772c8	0.014126487
240	0xbd7b6fa0	-0.06138575
241	0xbe139793	-0.1441329
242	0xbc7c652b	-0.01540498
243	0xbbc9972c	-0.0061520543
244	0xbd3d51c1	-0.046220545
245	0x3d9ef0ee	0.077607974
246	0xbccbf98b	-0.024899265
247	0x3d7bd16b	0.061479013
248	0x3c929b10	0.017896205
249	0xbdf91642	-0.121624485
250	0xbc05694f	-0.008142783
251	0x3d74bf1c	0.05975257
252	0xbdd603f1	-0.104499705
253	0xbdd90275	-0.10596172
254	0x3d2b0f71	0.041762773
255	0x3d70c578	0.05878207

conv_block_2.0.bias f4 [10]
0	0xbc2f4d90	-0.010699645
1	0x3dd58dcc	0.10427436
2	0xbd673451	-0.056446377
3	0xbdd6022d	-0.10449634
4	0xbd80f5db	-0.06296893
5	0x3ce7a157	0.028275175
6	0x3e9294c7	0.28629133
7	0x3ee3faa6	0.44527167
8	0x3f4a4b16	0.7902082
9	0xbd7c17b7	-0.061546054

conv_block_2.2.weight f4 [10, 10, 3, 3]
0	0x3e4acaa2	0.19803861
1	0xbdecc72e	-0.11561428
2	0xbe3c5453	-0.18391542
3	0x3df07e33	0.117428206
4	0xbe0b87e7	-0.13626061
5	0xbe6a7fad	-0.22900267
6	0x3d66ae72	0.056318708
7	0xbe77a0b1	-0.24182393
8	0x3e103ff6	0.14086899
9	0xbcb95857	-0.022625132
10	0xbea7550e	-0.3268208
11	0xbd7dcea6	-0.061964653
12	0x3dcb7d54	0.09936014
13	0xbc855636	-0.01627646
14	0xbe24f52e	-0.16109154
15	0x3e9b9b2f	0.30391833
16	0x3d109a43	0.035303365
17	0xbf5c3475	-0.86017543
18	0x3cb449f0	0.022007912
19	0x3c165f94	0.009178061
20	0x3df52619	0.11970157
21	0xbe0023ed	-0.12513705
22	0x3d8d2f1b	0.0689375
23	0x3d0bcd0e	0.034131102
24	0xbc3fd45b	-0.011708344
25	0x3d8a31ea	0.067478016
26	0xbdd25702	-0.10270502
27	0xbda42faa	-0.08016904
28	0x3db5f588	0.08884722
29	0xbd505cf7	-0.05086991
30	0xbd89e398	-0.06732863
31	0x3b27e97a	0.002562134
32	0xbc99e636	-0.018786531
33	0xbb007507	-0.0019601004
34	0xbd10829d	-0.035280813
35	0x3d219d75	0.039456803
36	0xbdef277a	-0.116774514
37	0xbd0b267f	-0.03397226
38	0x3de4f25b	0.11179038
39	0xbd3e2d0c	-0.04642968
40	0xbd5916e7	-0.053000357
41	0x3d4743b0	0.048648536
42	0xbd477344	-0.04869391
43	0xbd24dc6b	-0.04024927
44	0xbd9eeceb	-0.07760032
45	0xbe14fd18	-0.14549673
46	0xbdc220de	-0.09478925
47	0x3df7aac0	0.12093115
48	0xbd8d60ec	-0.06903252
49	0x3d39103d	0.0451815
50	0x3d95548b	0.07291516
51	0xbc58c2ab	-0.013230006
52	0x3dc15e11	0.0944177
53	0x3e06cdcc	0.13164443
54	0xbeb0b46b	-0.34512648
55	0xbe211e1f	-0.15734147
56	0xbf402211	-0.7505198
57	0xbe2a9241	-0.16657354
58	0x3da30af5	0.07961074
59	0x3eb7ab66	0.35872954
60	0xbe9cb61e	-0.30607694
61	0x3dba1940	0.09086847
62	0x3f002936	0.5006288
63	0x3e1fb6e5	0.15597112
64	0x3e543981	0.20725061
65	0xbe0a05a4	-0.13478714
66	0x3e070dae	0.13188812
67	0xbdbf00de	-0.09326337
68	0xbe912900	-0.28351593
69	0x3e6a026e	0.2285249
70	0xbe7f2334	-0.24915773
71	0xbe3938c0	-0.18088055
72	0x3f03e5ec	0.5152271
73	0x3d47f8a4	0.048821107
74	0x3dc1685b	0.09443732
75	0xbdd818bc	-0.10551593
76	0xbec5ee6f	-0.38658473
77	0x3e290fac	0.16509885
78	0xbeb2382b	-0.34808478
79	0xbea35e41	-0.31907848
80	0x3c0b3c89	0.008498319
81	0xbdb6e7b8	-0.089309156
82	0x3c41a56e	0.011819227
83	0xbd88e963	-0.0668514
84	0x3b1d496d	0.0024000064
85	0xbd9e4e98	-0.07729834
86	0xbcedd09b	-0.029030135
87	0x3d439d26	0.04775729
88	0xbc9b1086	-0.018928777
89	0xbd350220	-0.04419148
90	0x3e0dd9d1	0.13852622
91	0x3d9dd34f	0.077063195
92	0xbd1aae33	-0.037763786
93	0xbe046140	-0.12927723
94	0xbd85fffd	-0.065429665
95	0xbe0142ce	-0.1262314
96	0xbe01dff1	-0.12683083
97	0xbdbdcd55	-0.092676796
98	0x3d09919e	0.033586137
99	0x3c37c80a	0.011217127
100	0x3e334b64	0.17509228
101	0x3c3aafdd	0.011394468
102	0x3e19b11f	0.15008973
103	0xbde017cd	-0.1094204
104	0x3e41ab32	0.18912962
105	0xbdea9615	-0.11454407
106	0xbf045634	-0.51694036
107	0x3e012d8c	0.12615031
108	0x3b58d18c	0.0033083884
109	0xbc7cb382	-0.015423657
110	0x3da7b5ba	0.081889585
111	0x3d46224a	0.048372544
112	0xbda379db	-0.079822265
113	0xbd3d9621	-0.046285752
114	0xbd2f0f73	-0.042739343
115	0xbdae987b	-0.08525177
116	0xbc2dab79	-0.010599964
117	0xbd80e24f	-0.06293165
118	0x3d3e6c00	0.046489716
119	0x3db0b20e	0.08627711
120	0xbc3a4a16	-0.0113702025
121	0xbdb97533	-0.09055557
122	0xbdb4dfcb	-0.088317476
123	0xbd5c6334	-0.053805545
124	0x3d22ab0e	0.03971391
125	0x3906c9d7	0.00012854427
126	0x3d741d36	0.05959817
127	0x3c7f53a0	0.015583903
128	0x3d3e0d5b	0.046399456
129	0x3d914eef	0.070951335
130	0xbcb36a74	-0.021901347
131	0x3d267c31	0.040645782
132	0x3de1e094	0.11029163
133	0xbc77f1a1	-0.015133292
134	0xbd834f68	-0.0641163
135	0xbe0461e7	-0.12927972
136	0xbd9949d7	-0.07484787
137	0xbd3c0a15	-0.045908052
138	0xbd2255a8	-0.03963247
139	0xbd70374a	-0.058646478
140	0xbd2d6704	-0.04233457
141	0x3e8cd43d	0.27505675
142	0x3e99df18	0.3005302
143	0x3db0fe09	0.08642203
144	0xbeb7718f	-0.35828826
145	0x3b80812f	0.00392165
146	0x3eb72868	0.35773015
147	0xbe29336d	-0.16523524
148	0x3ec73b2a	0.38912326
149	0xbe2923ed	-0.16517611
150	0x3df3a300	0.11896324
151	0x3ee3d1d0	0.44496012
152	0xbf0531a6	-0.5202888
153	0x3d2206d1	0.039557282
154	0xbecc9500	-0.39957428
155	0xbd906e5d	-0.070523
156	0x3d8533be	0.0650401
157	0xbe9c6878	-0.30548453
158	0x3d68181b	0.056663614
159	0xbd46b6df	-0.048514243
160	0xbe34304d	-0.1759655
161	0x3ea92d07	0.33042166
162	0xbd22badc	-0.039728984
163	0xbe46fc73	-0.19432239
164	0xbdce5ef0	-0.10076702
165	0x3e52ce2a	0.20586458
166	0xbd8d759e	-0.06907199
167	0xbe833ecd	-0.2563385
168	0x3e51b39d	0.20478673
169	0xbd223c15	-0.03960808
170	0xbd4a4f92	-0.04939229
171	0xbc5477f0	-0.012968048
172	0x3d1a9a01	0.037744526
173	0x3d8f2c00	0.06990814
174	0xbd6cadca	-0.057782926
175	0xbd605367	-0.05476704
176	0x3d9b4925	0.075823106
177	0x3ca8c75f	0.02060288
178	0xbcb2b5c3	-0.021815186
179	0xbdc05c53	-0.093926094
180	0x3d370659	0.044683788
181	0xbdd02fcb	-0.10165366
182	0xbdb6c963	-0.0892513
183	0xbcdcd126	-0.026955198
184	0x3e8917b7	0.26775905
185	0xbe758dd8	-0.2397989
186	0xbdc24b91	-0.094870694
187	0x3eb352e4	0.35024178
188	0x3ded5f89	0.115904875
189	0xbedac46e	-0.4272799
190	0xbe4053fe	-0.1878204
191	0xbf0c99e3	-0.5492231
192	0xbef1dfdf	-0.47241113
193	0x3f01e950	0.5074663
194	0xbeb00e87	-0.34386083
195	0xbecd92bf	-0.4015102
196	0x3ea6288b	0.32452807
197	0x3e95c629	0.29252747
198	0xbdaf418b	-0.08557423
199	0xbd7ba5b4	-0.061437324
200	0xbbbfbd9a	-0.0058514597
201	0xbd5a05d6	-0.05322822
202	0x3c7af05d	0.015316096
203	0x3d8507d9	0.064956374
204	0xbd410b04	-0.047129646
205	0xbd817e5c	-0.06322929
206	0x3d759741	0.0599587
207	0xbd99a7d5	-0.075027145
208	0x3d9923fb	0.07477566
209	0x3d434dae	0.047681503
210	0x3d4982da	0.049197055
211	0x3be3b3c1	0.0069489186
212	0xbdb71474	-0.08939448
213	0x3dbfc52c	0.093637794
214	0xbd4a84c2	-0.049443014
215	0x3d032aff	0.032023426
216	0x3da737b4	0.081649214
217	0xbdbf5d49	-0.093439646
218	0xbd0ac7cc	-0.033881947
219	0xbd208c23	-0.039196145
220	0x3d9407df	0.07228064
221	0xbd2f5c3d	-0.042812575
222	0x3dec2828	0.11531097
223	0x3d55da65	0.05221023
224	0x3dc20bfc	0.09474942
225	0x3dc3ec3e	0.09566544
226	0x3d66fe84	0.05639507
227	0xbe922f68	-0.28551793
228	0x3e32ced0	0.17461705
229	0x3e0d9416	0.13826022
230	0xbe27f798	-0.16403043
231	0x3e2a5ba6	0.16636524
232	0x3e013794	0.12618858
233	0xbe587a11	-0.21140315
234	0xbf3063d5	-0.6890233
235	0xbe3271ae	-0.17426178
236	0x3e8bf5e2	0.2733603
237	0xbf189cae	-0.59614074
238	0x3bf088ce	0.007340527
239	0x3d3bdb1b	0.045863252
240	0xbe9f370a	-0.3109668
241	0x3e0a5bd0	0.13511586
242	0x3e3efc53	0.18650942
243	0xbdb867f4	-0.090042025
244	0x3ead77e7	0.3388054
245	0x3eb03c16	0.34420842
246	0xbea7f842	-0.32806593
247	0x3ca399cd	0.019970799
248	0xbd2bdf2a	-0.041960873
249	0xbdf71d35	-0.12066118
250	0xbe8c54d5	-0.27408472
251	0xbc6c8822	-0.0144367535
252	0xbe516586	-0.20448884
253	0xbe10d490	-0.14143586
254	0x3d926503	0.07148173
255	0x3c2bdf3e	0.010490237

conv_block_2.2.bias f4 [10]
0	0x3d4a4ce1	0.049389724
1	0xbebc35ea	-0.36759883
2	0x3e74a489	0.2389089
3	0x3c961a36	0.018323045
4	0xbd18589f	-0.03719389
5	0x3e14f9f6	0.14548478
6	0x3a8a56da	0.0010554448
7	0xbdceb7a2	-0.10093619
8	0xbdd8b607	-0.10581594
9	0xbdc0a89f	-0.09407162

classifier.1.weight f4 [10, 490]
0	0x3c548a58	0.012972437
1	0xbe0edc03	-0.13951115
2	0x3e10cc6c	0.14140481
3	0xbe049b30	-0.12949824
4	0x3e226931	0.1586044
5	0x3e0665a7	0.13124715
6	0x3e0f5871	0.13998581
7	0x3d830b1e	0.06398605
8	0x3e4f3590	0.20235276
9	0x3bfc5fa5	0.0077018314
10	0xbe1c7f79	-0.15283002
11	0x3de589f6	0.112079546
12	0x3dbbf34e	0.09177266
13	0x3b7f7f95	0.0038985957
14	0x3d0398fc	0.03212832
15	0xbd08acbb	-0.033367854
16	0x3e31e936	0.17374119
17	0xbddeb360	-0.10874057
18	0xbbea7069	-0.0071545136
19	0xbcec0475	-0.028810719
20	0xbd0fc77d	-0.035102356
21	0x3c30fdf5	0.010802736
22	0x3dee5781	0.11637784
23	0x3d4faeed	0.05070393
24	0x3d66b0ef	0.05632108
25	0x3e558b81	0.20853998
26	0x3d872297	0.06598394
27	0xba3e6d77	-0.00072642363
28	0xbc68a9fe	-0.014200686
29	0x3cf1a58b	0.029497882
30	0xbdc615b6	-0.0967211
31	0xbcbac4df	-0.022798954
32	0x3e1d8267	0.15381776
33	0xbe22e57e	-0.15907857
34	0x3d9de21a	0.07709141
35	0x3d86843d	0.06568191
36	0xbd844858	-0.06459111
37	0xbd9178ea	-0.07103141
38	0xbe5d47c5	-0.21609409
39	0xbdbd6de2	-0.09249474
40	0x3b2cf2b4	0.002638978
41	0xbcb1ddbc	-0.021712177
42	0x3d4c5ba1	0.04989207
43	0xbe273b47	-0.16331206
44	0xbe0eca87	-0.13944446
45	0x3d2c97d1	0.04213697
46	0xbcd70d84	-0.026251562
47	0x3ea0de35	0.3141953
48	0xbd958a6a	-0.07301791
49	0x3dac3f3b	0.08410498
50	0x3bf6b026	0.0075283227
51	0xbd64ac5d	-0.05582844
52	0xbdc826ff	-0.09773063
53	0xbccba92e	-0.024860945
54	0x3d8ca1f9	0.06866831
55	0x3d33db1d	0.043910135
56	0x3d837958	0.06419629
57	0xbda3a49e	-0.079903826
58	0xbe15ef79	-0.14642133
59	0x3a67d5a0	0.0008843783
60	0xbe4305ab	-0.19045131
61	0x3d318cca	0.043347158
62	0xbd9591fb	-0.07303234
63	0x3d3ac3d1	0.0455969
64	0x3e285f7c	0.16442674
65	0xbe004f9d	-0.1253037
66	0x3dcb445d	0.09925149
67	0x3d0f4581	0.034978393
68	0x3d8c327c	0.06845567
69	0xbd9e83eb	-0.07740005
70	0x3db915ca	0.09037359
71	0x3de28d58	0.110621154
72	0xbe0dc5ce	-0.13844988
73	0xbc091cd4	-0.00836869
74	0x3e1c0985	0.15238006
75	0xbc306651	-0.010766582
76	0xbdf1b979	-0.11802954
77	0x3d9ad99a	0.075610355
78	0x3da888ac	0.08229193
79	0xbd074062	-0.033020385
80	0xbddcc864	-0.10780409
81	0x3d084258	0.033266395
82	0xb94b7052	-0.00019401431
83	0xbde7e997	-0.113238506
84	0xbd4b2d35	-0.04960366
85	0xbde7e41a	-0.11322804
86	0x3d98e1b1	0.07464922
87	0xbdc55a47	-0.0963636
88	0xbe0621ab	-0.13098781
89	0x3d4ec86f	0.050484117
90	0xbcd64dcc	-0.026160143
91	0xbccf349f	-0.025293646
92	0xbd058cac	-0.03260486
93	0x3e8756a6	0.26433295
94	0xbe25c03f	-0.16186617
95	0xbde4a61b	-0.111644946
96	0x3cecb426	0.028894495
97	0x3ac3aebe	0.0014929397
98	0x3c2c710c	0.010524999
99	0xbd37cdb0	-0.044873893
100	0x3ca301d7	0.019898338
101	0x3d7a6ffc	0.061141953
102	0xbc26fc5a	-0.010192001
103	0x3e39091c	0.18069881
104	0x3c9e917f	0.019356487
105	0x3e780c25	0.24223383
106	0x3e1d28ff	0.1534767
107	0xbd989df9	-0.07452006
108	0x3d198d01	0.037487987
109	0x3cc08f89	0.023505943
110	0x3dc7dad0	0.09758532
111	0x3c460a90	0.012087479
112	0x3d927ab7	0.07152312
113	0x3dfd18f2	0.123582736
114	0x3e971c7a	0.29513913
115	0xbdce1635	-0.100628294
116	0xbd008723	-0.031378876
117	0xbd9862ee	-0.07440744
118	0xbde0db24	-0.10979298
119	0x3bf124ce	0.007359124
120	0xbdd68573	-0.10474672
121	0x3dbd2792	0.09236063
122	0xbe1b7673	-0.15181904
123	0xbd25bbfb	-0.040462475
124	0x3e0f5f3a	0.1400117
125	0xbcc4c164	-0.024017997
126	0xbe503e07	-0.20336162
127	0x3ab45705	0.0013758844
128	0x3d78cc02	0.060741432
129	0xbdc17192	-0.0944549
130	0xbe09c211	-0.13452937
131	0x3d8a16e7	0.067426495
132	0x3dcedaa9	0.101003
133	0xbd87727f	-0.06613635
134	0x3e1e5318	0.15461385
135	0x3d5bf48d	0.05370002
136	0xbdb215a9	-0.086955376
137	0xbe52ff77	-0.20605265
138	0xbd777bb8	-0.06042072
139	0xbb7749d9	-0.0037733226
140	0xbbf112e5	-0.0073569887
141	0x3d9ef2d8	0.077611625
142	0x3cd906be	0.026492473
143	0xbde7e118	-0.1132223
144	0xbda9bbfa	-0.08287807
145	0xbe4dda4a	-0.20102802
146	0xbdd2c656	-0.10291736
147	0x3e0a52bb	0.13508122
148	0xbe302fcb	-0.17205732
149	0xbe0a9e38	-0.13536918
150	0x3c0ffb8d	0.008788002
151	0x3ddf9704	0.10917476
152	0x3d8e6a91	0.0695392
153	0xbd4ea35d	-0.050448764
154	0xbd898e6c	-0.06716618
155	0xbdf649ad	-0.12025771
156	0xbdee2eda	-0.1163003
157	0xbc228cfe	-0.0099213105
158	0x3c6b8e0a	0.0143771265
159	0xbdb52810	-0.08845532
160	0xbe3392c5	-0.17536457
161	0xbe01e304	-0.12684256
162	0xbc146008	-0.009056099
163	0xbdb393d2	-0.08768429
164	0x3d1605da	0.036626674
165	0xbd83b684	-0.064312965
166	0xbd829abd	-0.0637717
167	0x3d194412	0.037418433
168	0x3c92db06	0.017926704
169	0x3dc0e7e0	0.09419227
170	0xbc4c579c	-0.01247206
171	0x3d39f90f	0.045403536
172	0x3c08a9ee	0.008341296
173	0x39fa463b	0.00047736042
174	0x3dcdc17f	0.10046672
175	0x3c6d310e	0.014477028
176	0x3e88c39f	0.26711747
177	0xbd020d6f	-0.031751093
178	0xbd45ec33	-0.04832096
179	0xbd16842b	-0.03674714
180	0xbd22fb40	-0.039790392
181	0x3e32a9c7	0.17447577
182	0xbd19e023	-0.03756727
183	0x3ea5d055	0.32385507
184	0xbd3082d6	-0.043093525
185	0xbd93664f	-0.07197248
186	0xbc05df75	-0.008170952
187	0x3bb0fe78	0.005401429
188	0x3e0b5753	0.1360753
189	0x3ca7dca8	0.02049096
190	0x3df89a27	0.12138777
191	0xbd64c73f	-0.05585408
192	0x3bfefc42	0.0077815363
193	0xbdad5b33	-0.084646605
194	0xbcdda859	-0.027057813
195	0x3dd0c19b	0.10193177
196	0xbca4dc6d	-0.020124638
197	0x3d2fa885	0.042885322
198	0xbd6929cd	-0.05692463
199	0x3c971b9c	0.018445782
200	0x3d560da3	0.0522591
201	0xbd1a325e	-0.03764569
202	0xbb2ae1f9	-0.0026074632
203	0x3b52467c	0.003208547
204	0xbd27003c	-0.040771708
205	0x3e38323c	0.17987913
206	0x3ea50589	0.32230785
207	0x3d568603	0.052373897
208	0xbe17f259	-0.14838542
209	0xbc80d825	-0.015728066
210	0x3d940c99	0.07228965
211	0x3d60ed64	0.054913893
212	0x3d11f045	0.03562953
213	0x3e3959e8	0.18100703
214	0x3dad4107	0.084596686
215	0x3e4f29af	0.20230745
216	0x3e09c863	0.13455348
217	0x3e326df1	0.17424752
218	0x3ddbefb5	0.1073908
219	0xbe3a8f72	-0.18218783
220	0x3cce16f2	0.025157426
221	0x3ceae857	0.028675241
222	0x3e53662e	0.20644447
223	0x3d6db7b4	0.05803652
224	0x3db3a03b	0.08770796
225	0xbe02f5d8	-0.12789094
226	0xbe2cf4db	-0.1689028
227	0x3d88e7d9	0.066848464
228	0xbb991215	-0.004671345
229	0x3ba88cf0	0.005143754
230	0x3c054efc	0.008136507
231	0xbd1eef4a	-0.038802423
232	0xbe4be4eb	-0.19911544
233	0x39d44da0	0.00040493626
234	0x3ac39d70	0.0014924239
235	0xbd53cb50	-0.051707566
236	0x3d5ac3e9	0.05340949
237	0xbd7198e9	-0.058983717
238	0xbc25ac7e	-0.010111926
239	0xbc1fcce9	-0.009753444
240	0x3d80ad70	0.062830806
241	0xbb17d249	-0.0023166111
242	0xbe007566	-0.12544784
243	0xbc2f6463	-0.010705086
244	0x3b9e202a	0.0048256116
245	0xbc5e4bcb	-0.013567875
246	0x3d6b30b8	0.05741951
247	0x3e2337b6	0.15939221
248	0x3daf5226	0.085605904
249	0xbd516ab3	-0.051127147
250	0x3e84f306	0.25966662
251	0x3d41e196	0.047334276
252	0xbb292589	-0.0025809726
253	0xbaad9ffc	-0.0013246532
254	0x3da94113	0.08264365
255	0x3da9e16d	0.0829495

classifier.1.bias f4 [10]
0	0x3d1de5bf	0.03854918
1	0xbe1a2a59	-0.15055217
2	0x3eea6815	0.45782533
3	0xbdb85982	-0.09001447
4	0xbeaf142e	-0.34195083
5	0xbe26916c	-0.16266412
6	0x3e6a1e95	0.22863229
7	0xbccb748b	-0.024835845
8	0x3e19ffe5	0.15039022
9	0xbe119e32	-0.14220503
