PyTorch_study/models/03_pytorch_computer_vision_model_2.pth (torch, 35762 bytes, 10 tensors)

conv_block_1.0.weight f4 [10, 1, 3, 3]
00000000: fc8d 7c3e b158 9d3e 42f9 e1be 0cbc 943e
00000010: 1e04 3f3e 98a5 9f3d 09ab 02bf bac7 bd3c
00000020: 90f4 953e 34f9 c5be 5789 013f da3f 9dbc
00000030: ab42 a93e 6c27 ec3e c562 fb3d 6fb6 19be
00000040: 19ba 8e3e b978 56bd c45b fbbe c97b 7bbe
00000050: caa7 f9bd 674f 2dbf e575 43bf ac07 e13d
00000060: 9257 4abf c7b9 1ebf 89b8 a0bc 505f 20bf
00000070: 9d5d 46bf 02eb 1ebf 3a95 873e 20fd 14bf
00000080: 99cb 203e ab01 ad3e baa5 883d ed5f f63e
00000090: 77e1 5cbe 4b47 713e 08cb 9ebc c896 85be
000000a0: 209a 3f3e c4f8 e9bd c9a6 043c fe79 913e
000000b0: b376 153e 3756 1cbe 7e8e 383e 4aa3 633d
000000c0: 838e 263e 6ba0 51be d84f a9be a921 06be
000000d0: e246 83be 3e24 833e 8db2 e63d 36f4 5f3e
000000e0: 75af a6bd e125 3a3d 1fac 463e 83e2 d6be
000000f0: 1530 22bd a018 d1be 3ea1 85bc 7104 1bbe
00000100: d6a7 ae3d 5c65 ebbd 7572 833e c115 4cbe
00000110: 187c 6abe 061f 80be 6b09 aa3e a7da 1a3e
00000120: 6505 bd3e f6db a6be 18a5 bdbe c92f 8dbe
00000130: e74b 95be fb7f 023e 7a9b 423e 2d52 b33e
00000140: 8288 0cbe a490 68be 52e4 333e f8bc 0abe
00000150: 9179 4d3e 0f8b a5bd 4971 413e 96ad 84be
00000160: 4785 2cbe f483 cd3d
0.24663538 0.3073173 -0.4413548 0.29049718 0.18653914 0.077952564 -0.5104223 0.023166526
0.2928815 -0.3866669 0.5060019 -0.019195486 0.33058676 0.46123827 0.12274698 -0.15010999
0.27876356 -0.052361224 -0.4909345 -0.24558939 -0.12190206 -0.67699283 -0.7635177 0.109877914
-0.7903987 -0.62002224 -0.019619243 -0.62645435 -0.7748659 -0.62077343 0.26481038 -0.5819874
0.15702666 0.33790335 0.06672235 0.4812006 -0.21570383 0.23562352 -0.019383922 -0.260916
0.18711138 -0.114244014 0.008096405 0.28413385 0.14596061 -0.15267263 0.18023106 0.055575646
0.16265301 -0.20471351 -0.33068728 -0.13098778 -0.25640017 0.25613588 0.112645246 0.21870503
-0.081389345 0.04544628 0.19401596 -0.4196969 -0.039596636 -0.408391 -0.016312238 -0.15138413
0.08528106 -0.11493942 0.2567326 -0.19930173 -0.228989 -0.2502367 0.3321031 0.15122472
0.36918178 -0.32589692 -0.3704002 -0.2757552 -0.2915947 0.12744133 0.19004622 0.35023633
-0.13723949 -0.22711426 0.17567566 -0.13548648 0.20065905 -0.08083164 0.18890871 -0.25913686
-0.16847716 0.10034934

conv_block_1.0.bias f4 [10]
00000000: 9698 31bd 2fbb dc3d 6786 883e 2acd 8a3d
00000010: 7620 24bd 9a52 52be 52c0 1d3e 1e93 97bd
00000020: e576 eebc dc34 a6be
-0.043358408 0.1077789 0.2666504 0.06777413 -0.04007002 -0.20539322 0.15405396 -0.07401107
-0.029109428 -0.32462204

conv_block_1.2.weight f4 [10, 10, 3, 3]
00000000: cf02 f63d ae9c 503d 1667 80bb 0863 d7bd
00000010: 9855 0ebe 7327 25be db28 06be ad9f 39be
00000020: 603a 34be 2847 67bd 3963 383d a8f3 f3bd
00000030: 6ae7 1cbe 1847 98be e03e abbe 4351 f5bd
00000040: bdb5 55be 8233 91be b43b bfbd 1f20 4bbd
00000050: 16e5 b83c 592e 873d 2485 8a3e 7d89 683e
00000060: 1eff f4bd f8c2 043d 9a63 bd3d 4388 e8bd
00000070: c71b 5f3c c5d7 fcbd ba65 623c e0dd 80bd
00000080: 20f2 e9bd f751 143e 72b6 933c d68c 013d
00000090: 6373 1abe f4f5 11be dcef 80bd 0483 f1bd
000000a0: d365 82bd f54b 4cbe 652e ad3d 9521 e1bd
000000b0: 4cbe 39bd 1117 b83c fee7 613d 28ff ad3d
000000c0: 4105 c53d ca73 aabd 0dfd f23c ce4f 38bd
000000d0: 7bba 4bbc dc44 9ebd 72b0 f33d e15f 61bd
000000e0: 5869 fcbc fd19 083e 22e2 e93d 258b d5bc
000000f0: a611 943d 7971 4b3c 79b1 b2bd 092c b5bd
00000100: 66b1 453d 72a1 47bc d77b 30bd 1ce2 af3d
00000110: 2583 a63b 14bb 6abd 0ceb 51bd 1662 a9bc
00000120: 4403 963d a4e3 efbb e2e2 4ebd a652 04bd
00000130: e560 96bd c021 3a3d c9f8 f43d 1dce dbbd
00000140: 491c b13c c108 5f3d 2496 9c3c 2bb0 19bd
00000150: 1d5a 613d c5e4 623d ac75 213d d7bc 97bc
00000160: 20a4 e4bc 3ec2 383c 8cc2 fdbc 4fb1 56bd
00000170: 7386 8b3d 55ca cd3d 1acd 0abd 405e 3cbd
00000180: 85cd 113d 48ce ab3c d2af 5cba 8883 413c
00000190: 5092 cfbd c396 48bd 7763 b83d 11ac 703d
000001a0: 2ddb e7bc feb1 45bd 5180 55bd a497 d2bd
000001b0: 9e63 13bd d3ad 143d 1f5b 923d 12fe 3d3d
000001c0: 5f3c c3bd 0529 99bd b2d5 93bc 6793 cf3d
000001d0: 434d af3b 455f 43bc 1475 003d 42de 56bd
000001e0: 056d 55bd 7777 bf3d 8362 37bd 49c7 bbbc
000001f0: 80ff c1bd e88a df3d be96 853d 968b 0b3d
00000200: a02c b2bd 027f dbbd 9f35 aebd ad4c 873d
00000210: b4eb 7d3d 6775 c63d ff3f 393d bcda da3c
00000220: ac5a 7bba e322 a4bd 95dd b8bd fa33 cabd
00000230: d5c7 313d e8fe 54bd b187 aebc a20b 78bd
00000240: a8bf ebbc be61 8fbd e86c 68bd 4467 fc3c
00000250: a1bb 24bd f0bf 943d 4af9 12bd f34a abbd
00000260: b7fc acbc 1302 37bd 10cc 0fbd 8b51 d1bd
00000270: a703 933d 544c 7abd cffe 4b3d 6957 383d
00000280: 6ec1 aa3d e46a 92bd 12d4 b03d d3f1 4dbd
00000290: 99c8 083d 28e5 cf3d 03ed 34bc e1e4 ce3b
000002a0: b527 bfbc d97b b6bd 3b91 803d 5d4e d6bd
000002b0: d503 863d 2f87 a13d 7e25 cc3d fdd1 cbbc
000002c0: 405d b1bd 9b37 c23c 8083 6e3d a2dd d6bd
000002d0: 4abe d2bc b86b 85bd b72a 47bc 7513 54bd
000002e0: 2910 3abd baa9 1abd 1a9b c2bd ef26 b73d
000002f0: d7a3 b33d 66cb 8bbc 1655 55bc ec9f 34bd
00000300: 6bd1 c0bd b0cd d0bd 278f 143d fd76 68bd
00000310: 35c5 89bd 9555 54bc c28b 24bd f87d 26bd
00000320: b157 56bb 32fc c4bc e9ce 1cbd f4d3 56bd
00000330: d212 b0bd 6abf b43d 8ce2 2cbd 69c6 db3c
00000340: e902 17bd 204d 023c 5930 cf3d 8820 413d
00000350: e9bd c4bd 96eb 0e3d 5b5d be3d 5f82 d63c
00000360: 558a 8e3d 5613 d33d c7e7 8dbc fd4e bb3c
00000370: 616d 95bd 91be d1bc e47c 953d dd29 513d
00000380: 3ac3 8fbd 651c adbd 3286 93bd 8312 d5bd
00000390: 0f8f a6bd 9ce2 d5bc 43b9 913d f97f 903c
000003a0: 4232 a4bd b62e adbd ece4 433d 5c3b aabd
000003b0: 3363 92bc 203d 463d 1074 51bd d0ef 40bc
000003c0: d870 17bc 84b0 c6bc 7b7a 5abd 356e c0bd
000003d0: 106e aebd 6d40 67bd 99c6 d13d 22c3 4fbd
000003e0: 0a0b 92bd 5e64 ce3c c949 f73c 0e78 793d
000003f0: 3f7a a23d cdc9 703d 21ea d5bd 4d77 243c
0.120122544 0.05093067 -0.003918539 -0.105169356 -0.13899839 -0.1612833 -0.13101523 -0.18127318
-0.17600393 -0.056464344 0.0450165 -0.11911708 -0.15322652 -0.2974174 -0.33446407 -0.1197839
-0.20870109 -0.2835961 -0.09337559 -0.04959118 0.022570174 0.06600637 0.27054703 0.22708698
-0.11962722 0.0324125 0.09247513 -0.11354115 0.0136174625 -0.12345842 0.013818199 -0.06292319
-0.11423135 0.14484392 0.018031333 0.031628452 -0.15083079 -0.1425398 -0.062957495 -0.11792567
-0.06367078 -0.1995085 0.08456115 -0.109927334 -0.045347497 0.022471936 0.055152886 0.08495933
0.09620143 -0.08322866 0.02966168 -0.044997983 -0.012434597 -0.07727978 0.11898889 -0.055023078
-0.03081195 0.13291164 0.114200845 -0.026067326 0.07229929 0.012417191 -0.087252565 -0.0884629
0.048264883 -0.012184488 -0.043086853 0.08588049 0.0050815516 -0.057307318 -0.05124955 -0.020676654
0.073248416 -0.007320838 -0.05050934 -0.032305382 -0.073427 0.045442343 0.119615145 -0.10732672
0.021619933 0.054451708 0.019114561 -0.037521522 0.05501758 0.055393953 0.03941886 -0.018522663
-0.027910292 0.01127678 -0.030976556 -0.05241519 0.068127535 0.100483574 -0.033887006 -0.04598832
0.03559639 0.020972386 -0.0008418533 0.011811145 -0.10135329 -0.048971903 0.090033464 0.058757845
-0.028302753 -0.04826545 -0.052124325 -0.102828294 -0.035983674 0.036298584 0.07146286 0.04638488
-0.09532999 -0.07478527 -0.018046234 0.10135537 0.0053497865 -0.0119245695 0.031361654 -0.052458055
-0.052105922 0.09348958 -0.044771682 -0.022922175 -0.09472561 0.10915166 0.065228924 0.034068666
-0.08699918 -0.10717584 -0.08506321 0.066064216 0.061992362 0.096903615 0.045227047 0.026715629
-0.00095884013 -0.080144666 -0.090266384 -0.09873195 0.043403465 -0.05200091 -0.021304937 -0.06055797
-0.028777912 -0.07001065 -0.056744486 0.03081096 -0.040218 0.07263172 -0.03588227 -0.08363905
-0.021116598 -0.044679713 -0.03510672 -0.10220631 0.07178431 -0.06110795 0.04980355 0.045005236
0.08337675 -0.07149294 0.08634199 -0.05027945 0.03339443 0.1015113 -0.011042836 0.0063139056
-0.023334363 -0.08910341 0.062777005 -0.10464165 0.065437 0.07887112 0.099680886 -0.024880404
-0.08660364 0.023708155 0.058230877 -0.10491492 -0.025725503 -0.06514686 -0.01215618 -0.05177637
-0.045425568 -0.03775952 -0.095022395 0.08942973 0.08771484 -0.017064761 -0.013020774 -0.044097826
-0.09414943 -0.10195482 0.036269333 -0.0567541 -0.067270674 -0.0129598575 -0.040172346 -0.040647477
-0.0032706077 -0.024046037 -0.038283262 -0.052448228 -0.0859734 0.08825572 -0.04220824 0.026828008
-0.03686801 0.007952958 0.101166435 0.047150165 -0.09606535 0.03489264 0.0929515 0.026185213
0.069599785 0.103064224 -0.017322434 0.022864813 -0.07296253 -0.025603564 0.072992116 0.051065315
-0.070196584 -0.084526815 -0.0720333 -0.104039215 -0.08132755 -0.026109032 0.07115414 0.017639147
-0.080173984 -0.08456175 0.04782574 -0.08312103 -0.017869567 0.048398137 -0.051136076 -0.011775926
-0.009243213 -0.024254091 -0.053339463 -0.0939602 -0.085170865 -0.056457926 0.102429576 -0.050723203
-0.07131012 0.025194343 0.03018655 0.06090551 0.07933473 0.058786202 -0.10445047 0.010038209

conv_block_1.2.bias f4 [10]
00000000: 89c0 bb3e 07ef 35bd b826 81bd f846 c93e
00000010: 473f 8bbd 8d06 7cbc 1aa8 b03e a2de 6dbd
00000020: 8450 563e 06e9 ba3d
0.3667033 -0.044417407 -0.06306213 0.39311957 -0.067991786 -0.015382421 0.3450325 -0.058073647
0.20929152 0.09126477

conv_block_2.0.weight f4 [10, 10, 3, 3]
00000000: 86c6 453b dfb1 d4bd d0c9 7dbd c4f8 f8bc
00000010: ecc0 4b3c da29 f43d 6b81 92bd ddb0 4c3d
00000020: 7772 bd3d 2f51 6a3d 5de0 c8bd b352 26bd
00000030: d4f0 b5bd b368 83bd 97c2 653d 5106 47bc
00000040: 0233 343d 35ce 7bbd 9335 843c efa6 82bd
00000050: 3cca 573d ad8d 3abd 4e92 d1bc 1ecb bbbd
00000060: 0545 533a 632d cd3d 4657 523d 49f8 cdbd
00000070: c151 7a3c 6834 4fbc 0006 bcbd 8ad3 8b3d
00000080: f06f 8bbd 3dae 723d 4654 bdbd 578a ffbd
00000090: 9c06 083c d5d4 3a3d c514 ad3c 0289 51bd
000000a0: 45b9 e33d 8ac0 bfbc 9ecf 86bd 9195 2abd
000000b0: 9fb3 cb3d 03be a93c 71cd 92bc 147d 59bd
000000c0: 6e6e 0cbc 34a1 a8bd f3e7 c9bd 6cb8 323d
000000d0: aef5 a33d 999a b03d 5eb4 50be 5e94 d63d
000000e0: 63a0 a0bd a999 d53c d443 fc3d fdcf 923c
000000f0: 0127 503e e1bf ae3d b341 45bd e292 aabc
00000100: 5e51 edbb 7e19 1d3d a9bd 38bd 17bc 323d
00000110: ca87 eebd 1517 ac3c a188 50bd e92a 69bd
00000120: 4dc6 0dbe 67c9 85bd 3244 023b feeb 533d
00000130: 9d8f eb3d 1b89 9b3c 1f96 2b3c d51e dbbd
00000140: 1280 15bc 0d4b a73d 4d97 aebd 0966 2b3d
00000150: a7ee c03d e921 8b3c 4889 8cbd e556 8c3d
00000160: 6041 2e3d 035a 603d e8c4 6a3c 547a a2be
00000170: ae00 23bd 90c5 403e 5e82 bdbe df06 e5bd
00000180: 4cd9 5a3d ca7b e93c 5095 b1bd d3a1 203d
00000190: bba3 55bd 4b94 d3bd 7951 2fbd c471 973d
000001a0: 6c34 eabc d14a 203d dcf8 3ebd ceec 903d
000001b0: bf1a 7c3d f325 123d 34e6 4abd e3ee aebd
000001c0: 1adf 893b 6fc9 78bd c642 b23d f63c d0bd
000001d0: 9c83 3f3d d00e c2be 3d42 9b3e 1c18 373e
000001e0: de22 a2be 7c57 723f 1c46 ec3e 0c9d 55bf
000001f0: ece9 8d3b 7e90 eb3d d051 a73c a087 cb3d
00000200: c2d9 eabc bee5 91bd 4409 83bb 176c 69bc
00000210: 6936 8e3d 457e e1bd ef8a 02be be8a 853e
00000220: daed 00bf 0354 79bd f5dd 263e 72cb 163e
00000230: 520b 453c bbcf 303d 6335 8f3e cbd6 523e
00000240: 31b7 13bf a0c3 bf3c 356f e23d 197b 08bf
00000250: 6469 043f 9de4 f23e eeaa 8bbe 41e4 74be
00000260: 4e9e 85ba 72ed 8a3b cb17 72be 66c2 9f3d
00000270: 9ac7 b7be b91d 05be fab4 33be abe1 91bd
00000280: 3d5c a5bd f3d3 1cbe a20f ebbe 64d7 513d
00000290: fcfa ec3e 10f0 bbbe f5a2 093f 5b6f 803e
000002a0: 592b 95be cbec 74bd e7d7 3bbe 6e85 aa3e
000002b0: 6806 6ebd 4afb ddbd 5431 8d3e 2b2f 68bd
000002c0: 6d33 08be ae2b 8ebd c089 a53d 4f74 7f3d
000002d0: e8c4 33bd 3648 a53d 30e5 993d f4c8 9fbd
000002e0: 35f3 c0bd d33e b2bd 7cd4 abbd 24a6 7bbd
000002f0: ec39 c7bc f4b3 cdbc 056e 5abd 527e 13bd
00000300: 19a6 17bd 71c0 d43d 8955 1cbd f5dd 9abd
00000310: eaac 323d d775 c1bb f44e a53d 64b1 863d
00000320: c67b c63d 6325 9ebd 71c6 8a3d 8d2f b53d
00000330: eb56 55bd 9b59 c63d d0d6 a13d d51f 45bd
00000340: 827a 713d 9c3f 26bc 2a9b eebd e9ab 523d
00000350: e631 9b3d 98fb 15be a43a e838 c923 34be
00000360: 9e59 b03d 530d c33d cb74 d93c b70c 7bbd
00000370: 2b66 7f3d 9447 053d 9bc9 093c b91b a83c
00000380: bd73 853d 5ee5 81bd e2c9 02bd bb43 9b3c
00000390: f22d 523c d4c9 f93d 4842 a6bc eb5b 5fbd
000003a0: 025d aabc a848 86bd 9a01 9c3d 52a1 2cbc
000003b0: eadd fcbc 707f e43c 2064 8bbd 74ff ce3d
000003c0: 92ae 89bd 0d80 0fbe dca7 183a 5361 493c
000003d0: 3bfb 64bd e705 0b3e f04d 8a3b cdd6 773d
000003e0: a11a a03d 5917 febd 9f3c 673c 7d4a c43d
000003f0: 1fd3 bfbd a93d b9bd 50bf 1d3e 2609 a93d
0.0030178144 -0.10385489 -0.06196004 -0.030392058 0.012436133 0.11922045 -0.07153591 0.049973357
0.09250348 0.05720633 -0.09808419 -0.040606212 -0.08883825 -0.06416454 0.05609378 -0.012147502
0.043993957 -0.06147595 0.016138827 -0.06379496 0.0526831 -0.04554527 -0.025582459 -0.09169601
0.0008059296 0.100184225 0.05135276 -0.10057122 0.015278281 -0.012646772 -0.09180832 0.06827457
-0.0680846 0.059248198 -0.092445895 -0.12477558 0.008302357 0.04561313 0.021128068 -0.05115605
0.11119322 -0.02340724 -0.065825686 -0.041646544 0.099463694 0.020720487 -0.017920228 -0.0530978
-0.00857125 -0.08233872 -0.09858694 0.04363291 0.08005844 0.08623237 -0.20381305 0.104775175
-0.07843091 0.026074247 0.12317625 0.017921442 0.20327379 0.08532692 -0.04815836 -0.020821992
-0.0072423657 0.03835439 -0.04510275 0.043636408 -0.116469935 0.0210071 -0.05091155 -0.056925688
-0.13845177 -0.06532555 0.0019877073 0.05173873 0.115020014 0.018986275 0.010472803 -0.1069924
-0.009124773 0.08168612 -0.08524952 0.041845355 0.09420519 0.016983943 -0.06862122 0.06852511
0.042542815 0.054773342 0.014329173 -0.31733954 -0.03979557 0.18825364 -0.37013525 -0.11182951
0.053429887 0.02850141 -0.08671057 0.039216828 -0.0521581 -0.10331019 -0.042802308 0.07394746
-0.02858945 0.03913385 -0.04662405 0.07076417 0.061548945 0.035680722 -0.049535945 -0.08541658
0.004207504 -0.060738977 0.08704142 -0.101678774 0.04675637 -0.37901926 0.30323973 0.17880291
-0.31667227 0.9466474 0.4614724 -0.8344276 0.004330864 0.11502169 0.020424753 0.09937978
-0.028668288 -0.07123898 -0.0039989073 -0.014246962 0.06943972 -0.11010412 -0.12748311 0.26082414
-0.5036293 -0.060871135 0.16295607 0.14726046 0.012026625 0.043166857 0.27970418 0.2058975
-0.577014 0.023408711 0.11056367 -0.5331283 0.51723313 0.47440043 -0.27278847 -0.23915197
-0.0010194273 0.0042397315 -0.23641889 0.078007504 -0.3589447 -0.1299962 -0.17549506 -0.07123121
-0.08074234 -0.15315227 -0.45910364 0.051230803 0.46285236 -0.3670659 0.5376428 0.25084957
-0.29134634 -0.059796136 -0.18344079 0.33304924 -0.05811158 -0.10838945 0.27576697 -0.056685608
-0.13300867 -0.06941925 0.08082914 0.06236678 -0.043888956 0.08070414 0.07514417 -0.07802001
-0.09421388 -0.08703389 -0.083901376 -0.06143774 -0.024319611 -0.025110222 -0.05332758 -0.03600914
-0.037023637 0.10388268 -0.03816751 -0.07561866 0.043621935 -0.00590394 0.080717 0.06576803
0.09691577 -0.07721975 0.06776131 0.0884696 -0.052084845 0.0968506 0.079023 -0.04812606
0.058954723 -0.010147002 -0.11650689 0.051433478 0.07577877 -0.14646757 0.00011073545 -0.17591776
0.08610843 0.09524026 0.026544949 -0.061291423 0.062353294 0.032538965 0.008409883 0.020521032
0.06516216 -0.063425764 -0.03193081 0.018953195 0.012828337 0.12196699 -0.020295277 -0.05453102
-0.020796303 -0.06556827 0.07617493 -0.010536509 -0.030867536 0.027892798 -0.06806207 0.101073176
-0.0672275 -0.14013691 0.0005823353 0.01229127 -0.055903655 0.1357647 0.0042207167 0.060507584
0.07817579 -0.12406797 0.014113574 0.0958452 -0.0936644 -0.09044964 0.15405011 0.08253698

conv_block_2.0.bias f4 [10]
00000000: 0ef4 a0bd 0480 203e 21a0 38bc 5796 d4bd
00000010: a939 993c 6045 d7bc 0168 223d c2d9 f23e
00000020: 98e0 4c3f 40aa 66bd
-0.0785905 0.15673834 -0.011268646 -0.103802375 0.018704252 -0.026278198 0.039649967 0.4743176
0.800302 -0.056314707

conv_block_2.2.weight f4 [10, 10, 3, 3]
00000000: ed4c 81bd 7bfe dfbd 3745 1bbd ca96 34bd
00000010: 2c4c 9f3c 09ee ccbc d9a8 043d a1b7 b4bd
00000020: a631 963d 4c5a 44be 0250 dcbe c555 e63b
00000030: 078e c2bd 741c 37be 6a02 04bf 999e e73e
00000040: 9e01 a33e 2baf 26bf 67e9 40bc 37c5 823c
00000050: 766f 9a3d 24fa 18be cce2 903d 5599 a13b
00000060: f29a 2fbd da2b c03d 5037 fabd d7fc 8dbd
00000070: c301 bf3d 636f 44bd ac40 42bd 5f1b a5bc
00000080: 5600 91bc 1061 253d 8a30 e2bc 4f1f aa3d
00000090: cc98 b1bc 5b8d a13d c310 6e3d 644d 6c3c
000000a0: 04aa acbb 9784 a1bc 442e 59bd 7116 18bd
000000b0: e398 8ebd 66ef 21be 5242 0abe b58f 7d3d
000000c0: 78a2 43bd a858 08bc ea80 6f3d 31bf 5f3b
000000d0: 913e 5cbd b632 9dbd e991 4fbd eaa5 8e3d
000000e0: 80ca 82be a542 b7be d032 41bd 60a6 ad3e
000000f0: 0ac7 86be 71db 1cbe 451a 6f3e d0df ea3e
00000100: aa6d 263e 6b14 02bd 7b29 bbbd 7b1a 56be
00000110: ab35 673c 98e4 a53d 460c 2cbd fbb6 cbbc
00000120: 4daa 9a3e 0159 7cbe 0994 533e 3c85 3f3e
00000130: 1b65 aabe 80ec 673e d531 81be 37ec d9be
00000140: 37a8 58be c9a0 7fbd 39fd b03c 5d77 99bd
00000150: 586e 893d 5e1c 07bd cc88 42bd 5445 083e
00000160: 78da aaba 1577 80bd 497c 1a3d 94ac 4f3c
00000170: 08b0 61bd e60f a5bd 03e9 7d3c 3b9b bdbd
00000180: 5048 e13d 30d1 bdbc 6677 20bc 81f4 e33d
00000190: e77f 003e 865e 88be 8535 ca3c 0567 9ebe
000001a0: b6a3 c83e 359d 75be d9ad 3bbf 390a 9e3e
000001b0: 457e e43c 1e7a 313c 6891 fe3d 31f4 ff3d
000001c0: 4c1b 64bd 51ff 80bc 7daf 1ebd 2729 eabd
000001d0: 92da 12bd 66dd 41bd ab35 4d3d deec c03d
000001e0: 39cb 8bb8 d258 bcbd 0ae3 c7bd 480a 36bd
000001f0: d7f6 993c 0fa9 58bc 2b50 9a3c 52ff 9d3d
00000200: 020a 263d 8415 2f3d df2e 06bd 154b 5a3d
00000210: 933a 903d 87db b3bd bcae 80bd a970 63bc
00000220: 2bf0 803d 4dfd a43d e52d f13b 327f 08bd
00000230: 2654 e73d df21 153e f244 eb3d cda9 ce3d
00000240: aced 86be 7ad0 243e d54f f63d 35e9 9ebe
00000250: 21ab bd3e 345f 6cbd 073a 9cbd 4dd8 ba3e
00000260: 3f8f 4dbe 2d3d b13c 6f22 5ebe 7d78 a4bb
00000270: 0c9f 6d3d e417 dbbe ab27 04be f4ee 533e
00000280: 0b0f 0bbf 00bb 0f3e e01d cdbd 6263 4abe
00000290: b34b 2c3d 7d08 163e 90b6 de3d 845e 78be
000002a0: e969 113e 9b47 333e a65c 0dbd e50e fcbc
000002b0: 1a1d b53c b10e 443d 07d7 91bd ec66 c2bd
000002c0: 9bcd 1ebc fc7c abbb c56a 00bd d223 01be
000002d0: 7b06 833d d9ca d43a 7bd0 61bd 0da6 69bd
000002e0: fcad c8bb b37b 8d3c 0cf7 e5bb 269f 023e
000002f0: f3ff cdbc 4efb e0be 8efe f2bd c399 00bf
00000300: 55ec 33bf d979 333f 53d6 1cbe a873 84be
00000310: e5f4 173e 6d7e 8b3e 89c6 2abc 6dfb a2bc
00000320: 58c2 9abc 39fc 4b3d 09ff 5c3d 03cd 773d
00000330: 40a9 8a3c 93fe f5bd 5bd3 a83d b161 b1bd
00000340: 7d43 b23d 06e0 403d 339c ca3c 1a3e 1fbc
00000350: 9a23 dabd 55e9 a23d b5db 32bc 53f4 523d
00000360: f291 ce3d 5e5a f2bd 1d95 13bd 8455 18bc
00000370: 3567 bc3c b425 e0bd 7b85 ab3d ecf5 a23c
00000380: c11c 243d 5670 513e 469d 053d 2327 fcbd
00000390: 7424 5c3e 6e72 373c a40b 23bd 624f 103d
000003a0: 63c2 27bc 58ce ebbd 84c0 8bbd 8129 4bbe
000003b0: 3410 e03d db27 25be 17a7 0dbc 9046 fa3d
000003c0: ea52 5ebe 9862 6e3c 3f54 8dbc 968f b3be
000003d0: f1c6 a43e 41ac 84bd 12c9 bebe 5f2c 6d3e
000003e0: 2a21 fdbb 20b8 703e 1563 23be f6e7 153d
000003f0: 768c 9e3d d762 83be b451 193e c588 b63c
-0.063135006 -0.1093721 -0.037907805 -0.044089116 0.019445501 -0.025015848 0.03238759 -0.08824087
0.073336884 -0.1917507 -0.4302979 0.0070292675 -0.09499746 -0.17881948 -0.51566184 0.45238188
0.3183717 -0.65111035 -0.011774397 0.01596318 0.07540791 -0.14939171 0.07074508 0.0049316087
-0.042872377 0.09383364 -0.12217581 -0.06932991 0.09326508 -0.04795779 -0.047424957 -0.020154653
-0.017700355 0.04037577 -0.027611036 0.08306753 -0.021679305 0.078882895 0.058121454 0.014422748
-0.005269291 -0.019716544 -0.053022638 -0.037130777 -0.069627546 -0.1581398 -0.13501862 0.061904628
-0.047762364 -0.008321919 0.05847255 0.0034141059 -0.053770605 -0.07675688 -0.05067626 0.06965239
-0.2554512 -0.35793033 -0.0471676 0.33915997 -0.2632373 -0.15318085 0.23349865 0.4587388
0.16252771 -0.031757753 -0.09138771 -0.20908539 0.014111917 0.081002414 -0.042003892 -0.024867525
0.30208054 -0.24643327 0.2066194 0.18703169 -0.33280262 0.22648811 -0.2523333 -0.4256303
-0.21157919 -0.062409196 0.021605121 -0.0749347 0.067104995 -0.032986037 -0.04749374 0.13307697
-0.001303508 -0.06272713 0.037716184 0.012675423 -0.055099517 -0.08059673 0.015497449 -0.092581235
0.11000121 -0.023171037 -0.009794092 0.1113062 0.12548791 -0.26634616 0.024683723 -0.30937973
0.39187402 -0.23985751 -0.73312145 0.30867174 0.027892241 0.010832338 0.12430078 0.12497748
-0.055690095 -0.015746744 -0.038741577 -0.114336304 -0.035852976 -0.047330283 0.05010001 0.09420179
-6.66589e-05 -0.09196629 -0.09760101 -0.0444434 0.01879446 -0.0132239 0.018837055 0.07714714
0.040536888 0.04274513 -0.032759544 0.05329426 0.07042422 -0.08782106 -0.06283328 -0.013881841
0.062958084 0.08056126 0.0073602074 -0.033324428 0.11295347 0.14563702 0.1148776 0.10090981
-0.26353204 0.16095152 0.120269455 -0.31037298 0.37044623 -0.05770798 -0.07628255 0.3649315
-0.20074175 0.021635616 -0.21692823 -0.005019246 0.058013007 -0.42791665 -0.12905757 0.20696622
-0.5431983 0.14036179 -0.10015464 -0.19764474 0.04206438 0.14651676 0.10874665 -0.24254805
0.14200558 0.17507784 -0.034512185 -0.030768821 0.022108603 0.047865573 -0.07121091 -0.09492287
-0.009692575 -0.005233405 -0.031351823 -0.1261132 0.063977204 0.001623477 -0.055130463 -0.057043124
-0.006124256 0.017270898 -0.0070179757 0.12756023 -0.02514646 -0.4394173 -0.11864959 -0.5023462
-0.7028249 0.701078 -0.15316133 -0.2586949 0.14839514 0.27244893 -0.010423311 -0.01989528
-0.018891498 0.049801085 0.053954158 0.06049825 0.016926408 -0.12011447 0.08243438 -0.08661211
0.087042786 0.047088645 0.024732685 -0.009719396 -0.10651322 0.07954661 -0.01091664 0.051502537
0.100864306 -0.118336424 -0.036030877 -0.009297732 0.022998432 -0.10944691 0.08375069 0.019892655
0.040066484 0.20453009 0.03262069 -0.12312152 0.21498281 0.011196716 -0.039806023 0.035231955
-0.0102392165 -0.11513966 -0.06823829 -0.19840051 0.109405905 -0.16128485 -0.008645794 0.1222049
-0.21711317 0.014549874 -0.017252086 -0.35070485 0.3218303 -0.06478167 -0.3726278 0.23161457
-0.0077249007 0.23507738 -0.15955766 0.03659817 0.077416345 -0.25661346 0.14972574 0.022282014

conv_block_2.2.bias f4 [10]
00000000: 6a5e a33d 74f7 41be fc38 6d3e f2b8 8e3d
00000010: 8366 5cbd 9888 063e e36e 173e ee01 433d
00000020: adca 96bd 1929 1cbe
0.079769924 -0.18942052 0.23166269 0.06968869 -0.0538087 0.13138044 0.14788394 0.047609262
-0.07362876 -0.15250053

classifier.1.weight f4 [10, 490]
00000000: 8050 b9bc bc32 bebd d4bb db3d d1eb 3abe
00000010: 4007 c6bd ed16 9cbd fea3 af3d da47 a33c
00000020: 602e 483e 44b6 093e 9133 5ebe 098a dc3c
00000030: b49c 233e 2433 423e b44f b73c 2a04 c23d
00000040: ecf9 0e3e 60d0 83bc e09e 453e 835f 663d
00000050: c6a3 00bd 5e51 8dbc a681 fc3d a77d 293d
00000060: b01c 4bbb 892c eb3d 37e0 fcbb 5c84 d53c
00000070: b030 9cbd 246b 33bd 5b86 9bbd c03a e9bd
00000080: 92b7 ef3d facb 05be 29e8 fdbc e0bf 243d
00000090: c7eb e2bd 114c 96bc f215 d7bd 8a86 a3bd
000000a0: 8c69 183e 7736 b4bd 5b63 f13d af4d 22be
000000b0: 511e 2bbe 3436 4bbd 94e0 1fbd 8805 843e
000000c0: 2631 eebd e6ae de3c c2f3 e93d 112a 03be
000000d0: 2f64 03be 8300 fdbc e0cc 5c3d 9a25 9a3d
000000e0: e3bf 103d e3c2 e9bd 2a30 70be 307a 183d
000000f0: 595f cbbd ac7d 0dbd 64d0 9b3c 4774 b83d
00000100: 2ca9 503e eb74 c8bd 6bcb f03c a981 92bd
00000110: 0b10 843e f231 8b3d 720d 3ebb 6eb9 a33d
00000120: cadf 37bd aef1 efbc 2610 953d 806d 5e3e
00000130: d04a a13d fe08 873d adea a63c 63e6 87bd
00000140: 67d6 94bd 8163 343d 02be 823d 0a57 103d
00000150: 0149 06be a42e f53c 0bc1 2dbd 5522 63bc
00000160: 8aa9 573b 2d1f 79bd 2371 453d 553c 8fbd
00000170: 30ea 55bd 6230 723e eaae 26be a9dd 20be
00000180: 0d7e 573d c4ba 21bc c22b 6e3d 7c56 9f3d
00000190: 7fa8 fc3d 0ffb bbbd 4501 b23d ab7f bc3d
000001a0: cb39 563d 4bbc 563e ba83 fc3d d33e ad3d
000001b0: 51f4 533d 73eb 573d 02aa 1b3c a804 0c3d
000001c0: 60ec 283d 48c3 e73d ab3d c23d 2829 82bd
000001d0: c3df 24bd f1ea 07bd 001f a4bd f623 77bd
000001e0: e7c3 b9bd ef60 3e3e b393 26be eb85 a7bd
000001f0: 6ab0 de3d 0e89 66bd cebe 77be 98db 89bd
00000200: a938 993d 712a b6bd e4b0 23be be97 9c3d
00000210: 15fb e53d f716 e2bd 3695 383c 92fc 083d
00000220: 9945 30bd 753f ecbd bb02 babd 6d86 993d
00000230: d468 983c 0d19 953d ffec a03c ebea e4bd
00000240: 4f5c e4bd aa2c 36be 83c2 c4bd 893b 843e
00000250: 679c 25bd 4bfe 8ebd 02b2 2cbd 777b b73d
00000260: dda5 a83d e08a 17bb 3321 96bd 6830 b7bd
00000270: eab9 00be 18b5 213c daed 1d3d 69dd dcbd
00000280: fa2f 8abd 1e50 f9bd c57f 89bd a8eb b9bd
00000290: a7e4 eb3c 6e00 a0bd e623 98bc 9cb0 1b3d
000002a0: b47b f33d 013b 863c 5be2 81bc 8d96 06bc
000002b0: d047 e03c 0085 e63d cecd 193e 17a0 9f3b
000002c0: 99f8 0b3e 198d e0bc 0c2b b7bd 3070 8dbd
000002d0: 17bf 2abc de1e 3c3e aa95 cfbd 5ae5 7c3e
000002e0: 147e 9fbd 8da4 e6bd ec96 e0bb 2410 90bc
000002f0: ea58 0c3e f802 3fbd d557 823c f5f9 debd
00000300: 5938 433a 7c7c 42bd 98fd 1ebd ac8b ad3d
00000310: 4ad6 d5bc 0b8d ddbb 45cb e0bc af54 53bd
00000320: 4aee 733d 2724 f4bc 4a77 2bbd 1c17 4e3c
00000330: b509 38bd 89ff 813e 4702 5c3e 3de2 e13d
00000340: d2d1 19bd 6ab8 bcbc 32b1 e73d 64f6 d73d
00000350: 023c 1a3d 403e 153e 3ce9 d83d 9112 8b3e
00000360: 14dd 233e e1de 5f3e fa66 013d 921c 67be
00000370: 42b1 00bd 54d1 033c f665 633e 6c62 1ebb
00000380: b2e4 223d ba46 31be 1bf3 1dbe 4f60 5e3d
00000390: 7b77 83bc 8b68 8a3d a980 bebd 16f4 7fbd
000003a0: a4d4 26be 2e77 35bc 749d d33b 5c37 57bb
000003b0: 6478 6d3d c9dd ccbc 6974 05bd 1e32 083d
000003c0: 1694 663d 8622 bcbb ccbb 98bd 0112 75bd
000003d0: 053f 32bc e178 6abd c913 493d a0fd c5bd
000003e0: 86c0 c03c 3100 363d ecbf 823e 483a 4a3d
000003f0: 3a90 843c 9aea 32bd 6b8d 473e b2eb 2e3d
-0.022621393 -0.092870206 0.10729185 -0.1825402 -0.096693516 -0.0762156 0.08576201 0.019931722
0.1954894 0.13448435 -0.21699359 0.026921289 0.15977746 0.18964821 0.022376873 0.094734505
0.13962525 -0.016090572 0.19298887 0.05624343 -0.031406187 -0.017250713 0.12329416 0.041379597
-0.003099244 0.11483104 -0.007717158 0.02606409 -0.07626474 -0.04380335 -0.07593986 -0.11388159
0.11704935 -0.13066092 -0.030994492 0.04022205 -0.11080127 -0.018346818 -0.105022326 -0.07984646
0.14884013 -0.08799451 0.11786529 -0.15849946 -0.16710784 -0.04961224 -0.039032534 0.2578547
-0.11630468 0.027183007 0.11423446 -0.12809016 -0.12831186 -0.030884033 0.05390632 0.07526703
0.035339247 -0.11414125 -0.23455873 0.037225902 -0.099302955 -0.03454368 0.019020267 0.09006553
0.20377034 -0.09787925 0.029393872 -0.07153637 0.2579349 0.06796636 -0.0028999713 0.07994352
-0.044891156 -0.029290047 0.07278471 0.21721458 0.078755975 0.06593512 0.020375574 -0.0663574
-0.072674565 0.044040207 0.06383897 0.035239257 -0.13113786 0.029929467 -0.04242043 -0.013863166
0.003290745 -0.060820747 0.0482036 -0.06993929 -0.05222529 0.23651269 -0.16277662 -0.15709557
0.052610446 -0.009871189 0.0581472 0.077801675 0.123368256 -0.09178745 0.086916484 0.09204038
0.05230121 0.20970266 0.12329812 0.084592484 0.05174667 0.052714776 0.009500982 0.034184128
0.04124105 0.11316544 0.094844185 -0.06355506 -0.04025246 -0.033183042 -0.08013725 -0.06033703
-0.090705685 0.18591665 -0.1626728 -0.0817984 0.10873492 -0.05628305 -0.2419388 -0.06731337
0.0748151 -0.08894814 -0.15985447 0.0764613 0.11229531 -0.110395364 0.011266043 0.033443995
-0.043035123 -0.11535541 -0.09082552 0.07496343 0.018604673 0.07280169 0.019644259 -0.111776195
-0.11150419 -0.17790475 -0.09607413 0.25826672 -0.04043236 -0.06982096 -0.04216195 0.08959096
0.08234761 -0.0023123547 -0.07330551 -0.0894478 -0.1257092 0.009869836 0.03855691 -0.10784418
-0.06747432 -0.12173484 -0.06713823 -0.09078151 0.028795553 -0.07812582 -0.018571805 0.038010225
0.11888829 0.016385557 -0.015855005 -0.008214605 0.027377993 0.112558365 0.15019915 0.004871379
0.13669051 -0.02741103 -0.089437574 -0.06906164 -0.010421536 0.1837115 -0.10135968 0.24696866
-0.07787719 -0.11261854 -0.006853929 -0.017585821 0.13705793 -0.04663369 0.015911022 -0.10887519
0.0007447056 -0.047482 -0.038816065 0.08473906 -0.026103158 -0.0067611984 -0.027440676 -0.051594432
0.059553422 -0.029802395 -0.04186181 0.012578752 -0.044931132 0.2539027 0.21485244 0.1102948
-0.037553616 -0.023037154 0.11313094 0.10545042 0.037654884 0.14574528 0.10591361 0.27162603
0.16002303 0.21862365 0.031592347 -0.22569492 -0.031419046 0.008045513 0.22206864 -0.002416755
0.039768882 -0.17312136 -0.15424769 0.054291066 -0.016048184 0.06758221 -0.09301884 -0.062488638
-0.16292053 -0.011075778 0.006457979 -0.0032839393 0.05797614 -0.0250081 -0.03258172 0.03325092
0.05629357 -0.00574142 -0.074576944 -0.059831623 -0.010879283 -0.057244185 0.049091134 -0.09667516
0.023529302 0.044433776 0.2553705 0.049371988 0.016182054 -0.043680765 0.1948754 0.042705245

classifier.1.bias f4 [10]
00000000: 8b31 5d3d 343e 32be 6157 d43e 5760 06bd
00000010: f759 c5be 0500 37be d8e3 6d3e 957a a9bc
00000020: 3113 2b3e 6fdd e7bd
0.054002326 -0.17406541 0.41472915 -0.03280672 -0.385452 -0.17871101 0.23231447 -0.020688334
0.1670654 -0.11321532
